assets/fooling_classifier.pt (torch, 111979 bytes, 13 tensors)

layers.0.weight f4 [16, 3, 3, 3]
000000 91 ea 74 bd a3 6c 2d 3d d4 05 c5 bb 7f be b6 bd
       -0.059794012 0.042339932 -0.0060126577 -0.08923053
000010 57 54 09 3e 06 9b bf 3d f1 b2 f5 3c e7 88 ad 3d
       0.1341108 0.0935574 0.029992552 0.08473378
000020 a6 49 1b 3e f1 ee 1a be 73 35 93 3d c6 f6 b5 bd
       0.15164813 -0.15130211 0.07187929 -0.08884959
000030 b1 ee cb 3d 97 a7 8c bd f9 62 23 be c3 98 9a bc
       0.09957636 -0.06867903 -0.15955724 -0.01887167
000040 27 5d f2 ba 7f 11 d4 3d 8b 20 90 3a 34 0e dd 3c
       -0.0018490896 0.103548996 0.0010996027 0.026984312
000050 d2 d8 33 be 98 70 01 bd 6a a6 90 3d dd 11 31 be
       -0.17563179 -0.03160152 0.07062991 -0.1729197
000060 b6 1b 8b bd be 38 a4 3d 21 d6 09 3e ca b5 0c 3e
       -0.06792395 0.08018635 0.1346059 0.13741222
000070 71 33 f8 3d 5a 38 41 bc de 55 20 bd 11 06 6a 3d
       0.12119187 -0.01179322 -0.03914439 0.05713469
000080 46 0a e0 bd 3c e8 01 be 2a 6f fb 3d cd 25 af bd
       -0.109394595 -0.12686247 0.12277062 -0.08552132
000090 99 e3 43 3d 7d 72 a4 bc 23 5c 98 3d 05 79 11 bd
       0.047824476 -0.020074124 0.07439449 -0.035515804
0000a0 48 77 20 be 18 28 d4 3d e8 18 5c bc 1b 55 39 3d
       -0.15670502 0.1035921 -0.0134336725 0.04524718
0000b0 ee fa 1f 3d c3 5e 8a 3d be 45 32 be 90 6f bb 3d
       0.039057665 0.067563556 -0.17409417 0.09152138
0000c0 72 0a 1d 3e 21 ed 26 3e 63 da a4 bd b3 0b 71 3b
       0.15336016 0.16301395 -0.080494665 0.0036780655
0000d0 53 27 ea 3d 25 9d a7 bd d7 53 02 be 37 81 9f bd
       0.11433282 -0.0818427 -0.12727295 -0.07788318
0000e0 29 60 94 3d 75 92 dc 3d a1 5c fa bd e2 92 dc bd
       0.072449036 0.10770122 -0.12224699 -0.10770203
0000f0 6d 9f 30 be cf bc 7b 3d 39 e0 13 3e 06 89 d8 3d
       -0.17248316 0.06145936 0.14441003 0.1057301
000100 c2 aa d6 3d 03 d0 22 3d 13 9e 3a be 44 c1 8f 3b
       0.10481788 0.039749157 -0.18224363 0.0043870527
000110 b9 13 f6 bd 50 d1 0a 3e cc 52 d8 bd 0c 36 a8 3d
       -0.120154805 0.13556409 -0.10562667 0.082134336
000120 bf 2d bb bd a5 6d 77 3d 22 51 4b 3d 26 59 74 3d
       -0.09139585 0.0604073 0.04963792 0.05965533
000130 4b f7 55 bd d9 83 8c 3d 96 aa f9 3d 41 53 11 3e
       -0.05223779 0.068610854 0.1219074 0.14191915
000140 05 59 1b 3e e5 84 ad bd e2 2a b9 3d 4a 29 e8 3c
       0.15170677 -0.08472613 0.09041382 0.02834
000150 a4 2b c1 bd 7c 25 65 38 71 57 e6 3d 5a 77 1e be
       -0.09432152 5.4632765e-05 0.11247147 -0.15475217
000160 43 25 25 be dc 6c 1c ba 3b 90 fa bd 18 f6 06 3e
       -0.16127495 -0.0005967149 -0.12234541 0.13179815
000170 e5 52 04 be cb 57 80 bd 64 59 8e bd c8 da 35 3e
       -0.12922247 -0.06266745 -0.06950644 0.1775924
000180 3c 4d c4 bd 22 32 05 3e a0 07 cf bd 16 28 f1 bd
       -0.09585044 0.13007405 -0.10108876 -0.11775224
000190 da 5d c8 3c f8 1c c0 bd 78 98 15 3e 20 f3 85 bd
       0.024458814 -0.09380525 0.14608943 -0.06540513
0001a0 90 3c 13 3e 50 cc ac bc c8 5a 03 3e 10 cb 63 3c
       0.14378572 -0.021093518 0.12827599 0.013903394
0001b0 42 fb de bd 01 33 2b 3e be b5 00 be 9b f4 b6 bd
       -0.108877674 0.16718675 -0.12569329 -0.089333735
0001c0 dd 20 79 bc d2 30 05 bb c8 50 8e 3a 58 56 53 3c
       -0.015205589 -0.0020323289 0.0010857815 0.012899004
0001d0 ce 6f e0 bd 78 57 89 3d 55 24 28 3d 95 39 0d 3e
       -0.10958825 0.067061365 0.041050274 0.13791497
0001e0 db b4 14 3e 06 87 1c be 43 4f 09 3e 3f 0f 2c be
       0.14522116 -0.15285882 0.13409142 -0.16802691
0001f0 f4 80 bd 3d 05 9e df bc 2d 1a 98 3d e0 33 0a 3e
       0.092531115 -0.02729703 0.07426868 0.13496351
000200 41 b9 88 bc 27 ed 3f be f8 13 62 bc 0f f9 11 3e
       -0.016689898 -0.1874281 -0.013798706 0.14255165
000210 a6 42 0d be c9 3e 0b be 80 55 16 be 4e cb 67 3d
       -0.13794956 -0.1359817 -0.14681053 0.05659037
000220 7b a6 37 3e a9 1e ea 3d 85 8f a4 bd f0 0b 35 3e
       0.17934601 0.11431629 -0.08035187 0.17680335
000230 fc 15 57 3d af 06 0e be 21 8e 75 3c 79 be 83 3c
       0.0525112 -0.13869737 0.014987499 0.016082035
000240 b5 33 ff bd cc 30 66 bc 5b e2 b2 bc 50 6c 8b 3c
       -0.12461034 -0.01404972 -0.02183645 0.01701942
000250 97 e2 04 be f5 39 4a 3d 78 10 a9 3c e9 5a 1f 3d
       -0.12977062 0.04937168 0.020637736 0.038905058
000260 63 12 62 3d 4a 10 9a 3d 41 69 90 bd 94 e0 0f 3d
       0.055193316 0.07522638 -0.070513256 0.035126284
000270 db 31 ee bd c9 7d 41 be 30 4b 14 3c d9 f3 fe 3d
       -0.11630603 -0.1889564 0.009051129 0.12448854
000280 2f ef 89 3d b4 a2 8a 3c 4c 05 a3 3c 5d 69 05 3e
       0.06735074 0.016923286 0.019899987 0.13028474
000290 2e a3 bb bd d5 01 01 3e 49 fa 0d be 6b a9 21 3e
       -0.091619834 0.12598355 -0.13865007 0.15787284
0002a0 56 cf e4 3d e5 6e 10 be cf c6 99 bd fc 7b ae bd
       0.11172359 -0.14104803 -0.07508623 -0.08519742
0002b0 ae 8e b5 bd a6 cd 1f 3d 3a 8a 17 3e da cb 9c bd
       -0.088651046 0.03901448 0.14798823 -0.07656069
0002c0 cf dc f2 3d c5 50 02 3e 01 9f 95 bd af fd a9 3d
       0.11858522 0.12726124 -0.07305718 0.083003394
0002d0 d6 da 3d 3d 5e c4 8c bd 26 9e 92 3d 55 55 62 bd
       0.046351276 -0.068733916 0.07159071 -0.05525716
0002e0 20 c8 15 3e 9a 87 aa bd 73 b5 0d 3e a6 d3 56 3d
       0.14627123 -0.08326645 0.13838749 0.052447937
0002f0 0c 54 c0 3c 86 ee f4 bd d1 59 e1 3b 11 1b 77 3d
       0.023477577 -0.11959557 0.006877162 0.060328547
000300 89 84 bb bd 3f 91 03 be d4 d4 12 3e 65 36 65 3c
       -0.091561384 -0.12848376 0.14339 0.013990019
000310 da 60 bb ba 12 f3 7a 3b bb 57 47 3b 70 ce ff bc
       -0.0014295832 0.0038291854 0.0030417282 -0.031226367
000320 ab bb 99 bb 20 0d e9 bd 44 d0 84 3d b8 b7 20 3e
       -0.004691561 -0.113794565 0.06485036 0.15695083
000330 65 76 ea 3c e5 df fe 3d 09 64 74 3d 84 ea fe 3d
       0.028620908 0.12445048 0.059665713 0.12447074
000340 0e 61 e9 bd 76 4e e3 3d de 05 2c be 7a 37 6e 3d
       -0.11395465 0.110989496 -0.16799113 0.058158375
000350 37 7b d8 3d fd 4c b4 3c c2 f1 19 3e b6 dd 19 be
       0.10570376 0.022009367 0.1503363 -0.15025982
000360 10 54 92 3c bf 73 1a 3e 8d 15 22 3d 24 98 2e bd
       0.01786235 0.15083216 0.039571334 -0.04262556
000370 b6 9c 7b 3d 84 f4 96 bd fc 36 92 bd 84 22 30 bd
       0.061428748 -0.073708564 -0.07139394 -0.043001667
000380 2c 20 1f bd 1a dc 70 3d 32 be 8f bc 24 12 0b be
       -0.03884904 0.058803655 -0.017546747 -0.13581139
000390 f7 57 bd bc c5 b1 e0 3d 51 40 18 3d 3c 69 25 be
       -0.023113234 0.10971407 0.037170712 -0.16153425
0003a0 be 6b e8 3c af 05 ef 3d e4 f6 57 be 68 32 27 3c
       0.028371688 0.11671006 -0.21090275 0.010204889
0003b0 8e f4 5b 3d fe 76 be bd ec a0 8d bd d5 37 14 be
       0.053700022 -0.0930004 -0.06915459 -0.14474423
0003c0 bc 5e 5b bc fe 03 d6 3c 07 f1 0f be 2f 1b 06 be
       -0.013389286 0.02612495 -0.14056788 -0.13096307
0003d0 28 25 f7 bd 0b 8a 91 3d d7 65 08 be a0 8f 6e 3d
       -0.12067634 0.07106408 -0.13320099 0.05824244
0003e0 cd a9 14 be 80 f3 0f be 1c c6 3c 3d dc 2a 2e bd
       -0.14517899 -0.14057732 0.04608737 -0.042521343
0003f0 2c 98 b9 bd 44 05 c0 bd ea e0 48 be 43 87 08 be
       -0.090622276 -0.09376004 -0.19617048 -0.13332848

layers.0.bias f4 [16]
000000 7b e3 b1 3c 2b 8c 1e be 78 13 16 be 76 47 c8 3c
       0.021714916 -0.15483157 -0.14655864 0.024448138
000010 c1 5c 89 3d 85 d1 01 be b7 3d 5c be f0 ab 4f be
       0.067071445 -0.12677582 -0.21507917 -0.20280433
000020 70 a2 d6 3d 45 b7 0f 3e dd 1a 13 be 14 fb a4 3c
       0.10480201 0.14034756 -0.14365716 0.020139255
000030 e4 57 de bd ab 17 0e 3d 8b 73 e6 3d 56 0b a9 bd
       -0.108566076 0.03469054 0.11252507 -0.08254115

layers.2.weight f4 [16, 16, 5, 5]
000000 cc 89 3e bd b4 43 32 bd 01 c9 4c bd 5a 3d 9f 3c
       -0.046518132 -0.043521598 -0.04999638 0.019438434
000010 21 56 d3 bc 52 f2 e8 3a 38 67 0e 3c f0 b8 c2 bc
       -0.025797905 0.0017772412 0.008691601 -0.023769826
000020 36 8b 2d bd 5e e5 df 3b 34 31 a5 3b 56 f3 15 bd
       -0.04236909 0.0068327626 0.005041266 -0.036609016
000030 87 68 82 3c 87 0b 2c 39 cf da 9e ba ea bd 09 bd
       0.015918983 0.00016407493 -0.0012119653 -0.03362838
000040 38 a0 bb 3c 92 05 41 bd cc 54 bb bc de 90 8c 3c
       0.022903547 -0.047124453 -0.022867583 0.017158922
000050 3a cd 38 3c 75 58 0d bd d0 dd 40 bd e8 90 4d bc
       0.011279399 -0.034508187 -0.047086537 -0.012546755
000060 60 04 30 bd 4d 1c b4 3c 5b 99 35 3d 8d 15 b9 3c
       -0.042972922 0.021986151 0.044335704 0.022593284
000070 dd e6 19 bc d7 be a1 3b b1 f0 2b bc c7 0a 85 bb
       -0.009393421 0.00493608 -0.010494397 -0.0040601227
000080 77 fe bd 3c 00 06 ce 3c d4 bb 0b 3d 65 73 27 3c
       0.023192627 0.025149345 0.034114674 0.010220383
000090 32 f8 15 bd e5 8b 0a 3d 41 91 01 3c 22 74 0e 3d
       -0.03661365 0.03382482 0.007908166 0.03477872
0000a0 73 48 47 3a 37 0d 10 3d ce 51 ef b9 d7 f3 a8 b9
       0.00076020433 0.035168853 -0.00045646582 -0.00032225132
0000b0 45 3d 09 3d 87 0e 2f 3d 5e cd 08 bd 46 53 00 3d
       0.033505697 0.042738464 -0.03339898 0.031329416
0000c0 99 0f be bb f4 8d 8b 3c 0c 8d 12 3d 3c 74 27 3d
       -0.005800199 0.017035462 0.035779044 0.040882334
0000d0 fa 3c 43 3d 0e 36 37 3c 13 e1 75 bb 06 1b 3b 3d
       0.047665574 0.011182321 -0.0037518188 0.04568007
0000e0 a9 a4 12 3d ca 4e b3 3a 7b 18 ac bc 61 ce fe bc
       0.035801563 0.0013680097 -0.021007767 -0.031104269
0000f0 b2 76 43 3d 0b 4f 7d 3c aa 5d 1c 3d 90 e7 0c 3d
       0.04772062 0.01546074 0.038175263 0.034400523
000100 fe c5 bc 3a ee 9f 64 bc af fd 47 bc c6 88 14 bd
       0.0014402268 -0.013954146 -0.012206479 -0.03626325
000110 b5 f3 45 3d 8f a2 03 3d ea ee 9b bc 82 87 13 bc
       0.04832812 0.03213745 -0.019034822 -0.009004476
000120 9e e7 f0 bc f9 bc 1e bd c0 92 39 3d bf 97 96 3c
       -0.029407319 -0.038754437 0.045305967 0.018382905
000130 90 14 e2 bc 21 4a dd 3c be 8d 0c bc 8f 0c ef bc
       -0.027597696 0.027012886 -0.008578716 -0.029180793
000140 40 84 21 3d 9a 4d a0 bc c7 66 bb 3c de d5 3c 3d
       0.039432764 -0.019568253 0.022876156 0.046102397
000150 60 71 0b 3c 25 54 02 bd c2 8c 7e 39 63 52 d2 3c
       0.008510917 -0.031818528 0.00024275764 0.02567405
000160 2c 88 08 3c 33 e5 87 bc 01 48 08 3d e1 20 a2 3c
       0.008333247 -0.016588783 0.033271793 0.019791069
000170 13 ad b5 3c b9 a9 09 3c 60 58 1d 3c 67 ab 18 bc
       0.022177255 0.008402281 0.00960359 -0.009318209
000180 9c 52 c0 bc ba 9d 31 3d 0f 97 d1 3c 46 71 4d bc
       -0.023476891 0.04336331 0.025584726 -0.0125392135
000190 75 38 18 bd 0d 0a ad 3c ba 91 5b 3c 58 fe d0 3c
       -0.037163217 0.021122957 0.013401443 0.025511906
0001a0 e8 04 66 bb 90 48 06 bc fb ef fe 3c b5 de 17 bd
       -0.003509814 -0.008196011 0.031120291 -0.037077624
0001b0 83 e1 6c bc bb 3b b8 bc 10 8c 9d bc 6c ed 8e bc
       -0.014458063 -0.02248942 -0.019231826 -0.017447196
0001c0 f7 10 23 3d fa 3f b2 bc 6d ed a3 ba 04 67 0c bc
       0.0398111 -0.021759022 -0.0012506671 -0.008569483
0001d0 67 4e b9 ba e1 f6 cc bc 43 87 0c 3d 00 2c 34 3c
       -0.0014137746 -0.025020065 0.034308683 0.010996819
0001e0 cc 6c 3c 3d 06 48 09 3c 06 73 45 3d f0 45 a1 3c
       0.046002194 0.008378988 0.048205398 0.01968667
0001f0 17 15 02 3c a1 fc 2a bd 06 0e 39 bd cb 69 13 bd
       0.0079395985 -0.041744832 -0.04517939 -0.035989564
000200 f6 39 e8 3c 27 f0 10 3d 1e e2 0d 3c 69 25 a7 ba
       0.02834795 0.035385277 0.008659868 -0.0012752238
000210 73 a2 20 bd f3 bc c1 bc 64 f8 63 bc 02 54 b1 bc
       -0.039217424 -0.023649668 -0.013914201 -0.021646503
000220 f3 77 14 bd ca 6c a2 bc 0d 5b 80 bc 08 1b 08 bc
       -0.036247205 -0.019827265 -0.015668416 -0.008307226
000230 c8 2e e2 bb 09 e4 d3 bb 7b e4 68 bc 5e 19 79 3c
       -0.0069025494 -0.006466393 -0.01421463 0.015203802
000240 34 67 16 bc a4 f7 49 b9 24 21 1f 3d 1c ef 14 bd
       -0.009179879 -0.00019261107 0.038849965 -0.036360845
000250 89 f1 b5 3b c5 30 0f bd ad bd 22 bd 56 95 da bb
       0.005552475 -0.03495862 -0.03973167 -0.0066706343
000260 da 00 e1 bc e4 67 a2 3c 6f db ea bc 32 be 01 3d
       -0.027466226 0.01982493 -0.028669087 0.031675525
000270 b3 bd 95 3c 48 fd 23 3d ba d2 fc 3c d1 10 7b bb
       0.018278932 0.04003647 0.030862201 -0.0038309584
000280 e3 a2 0b bd fc 3e 47 bc db 1d d3 3c d5 f7 f0 bb
       -0.034090888 -0.012161013 0.025771072 -0.0073537626
000290 0c 63 9f 3c a4 bc 22 3d 41 cd 56 ba 56 0d 09 3d
       0.019456409 0.039730683 -0.00081940374 0.033459984
0002a0 76 4f 27 3c 6c 03 8c bc b9 2b 30 3d 59 b9 c6 bc
       0.010211816 -0.017091475 0.043010447 -0.024258303
0002b0 d1 e4 b9 3c 20 d0 31 3d ef 0f 27 3c 84 93 25 3d
       0.022692116 0.043411374 0.01019667 0.040423885
0002c0 e8 51 d0 bc 95 7d d5 bc 9a 1d 0c bc 61 dd 24 3c
       -0.025429681 -0.026060859 -0.008551979 0.0100625465
0002d0 f0 ea f8 bc 67 e8 09 3d 71 76 31 3c 8e d1 dd 3c
       -0.030385464 0.0336689 0.010831461 0.027077463
0002e0 f8 77 bb 3c ba 06 4c bc 79 51 c7 3c bf 42 36 3c
       0.022884354 -0.012452776 0.024330841 0.011124312
0002f0 4b 64 7d 3b 03 4f 2f 3d 26 bf d7 3c 9e 82 9e bc
       0.0038664516 0.04279996 0.026336264 -0.019349393
000300 46 4f 0f bd a0 0d 49 3d 7d 40 ef 3c 7f 74 f8 bc
       -0.03498771 0.04908526 0.029205555 -0.030328987
000310 33 6f 8f bc 29 46 0c 3b b6 79 f6 bc 20 40 53 bc
       -0.017509079 0.0021404123 -0.030087333 -0.012893707
000320 ec 2f 6d bc d9 18 fe 3c b1 25 89 3c be 2f a7 bc
       -0.0144767575 0.031017708 0.016741605 -0.020408507
000330 03 1c 8f 3a 10 b6 ac 3c 41 2d 95 3c 0b d8 fc bc
       0.0010918382 0.021082908 0.018210055 -0.030864736
000340 96 c7 18 3a 49 19 14 bb d2 db d6 bc 67 75 d4 3b
       0.00058280805 -0.002259808 -0.026227865 0.006483722
000350 8e c7 db 3b 19 2d 2f 3d 1e 26 cc bc 81 91 87 bc
       0.0067071384 0.042767618 -0.02492052 -0.016548874
000360 bd 54 1d bd 97 07 8e 3c ac 00 bf bc 84 fc 13 bd
       -0.03841089 0.017337603 -0.02331575 -0.03612949
000370 11 28 b9 3c da 81 3f 3a d5 d6 b8 3b e5 e8 fa 3b
       0.022602113 0.0007305421 0.0056408443 0.0076571577
000380 a5 4f 83 bc 7e 14 06 3d fa 61 dc 3c 06 92 2f 3d
       -0.016029188 0.032734387 0.026902188 0.04286387
000390 01 27 f2 3c d0 e7 c5 bc 8f 63 41 3d 31 5b 8d 3c
       0.029559614 -0.024158388 0.047214087 0.017255398
0003a0 43 81 49 3d 3f 54 6c 3c 62 82 bd 3c ca 7f 4d 3c
       0.04919554 0.014424383 0.02313346 0.012542674
0003b0 a0 37 aa bc 85 8f ec bc 28 fb 8d bc 59 28 f9 bc
       -0.020778477 -0.02887703 -0.017331675 -0.030414747
0003c0 dc ab 03 bd c9 a1 c5 bc 11 db 25 3d dd 6f 87 bc
       -0.03214632 -0.024124997 0.04049212 -0.016532833
0003d0 4d 19 37 bc c5 36 1b bd 23 64 f8 bc 9d 15 b4 bc
       -0.011175466 -0.03789403 -0.030321186 -0.021982962
0003e0 25 21 2e 3d b0 e9 fe bc bb dd 77 bc 2e 7d 4d bb
       0.042512078 -0.03111729 -0.015128548 -0.003135513
0003f0 fb eb df 3c e5 9e 61 3c a4 16 2c ba 08 7b f9 3c
       0.027334204 0.013770794 -0.0006564653 0.030454174

layers.2.bias f4 [16]
000000 45 02 57 ba 34 d7 21 bb 48 0c 87 bc c7 ad a8 bd
       -0.00082019373 -0.0024694921 -0.016485348 -0.082362704
000010 51 b9 95 3c 4e c7 0f 3c a0 ba e0 bb 50 a9 87 bb
       0.018276842 0.008775545 -0.006858185 -0.0041400567
000020 6f 1f c8 bc d3 7c 0e 3d 45 16 87 bc e4 47 3f bd
       -0.024429051 0.03478701 -0.016490111 -0.04669942
000030 60 13 af bc 8e 8d cb bc f5 de c7 3b f5 ea c4 bc
       -0.021371543 -0.024847772 0.0060995766 -0.024037817

layers.4.weight f4 [16, 16, 5, 5]
000000 7a e4 c0 bc 26 b0 b1 bb 43 cd 9d 3c 26 3c a9 3c
       -0.023546446 -0.00542261 0.019262915 0.020658564
000010 33 49 08 3d ee 67 a4 bc 32 72 92 3c d0 45 98 3c
       0.033272933 -0.020069089 0.017876718 0.018587977
000020 b0 c5 20 3d a9 17 09 bd e6 94 79 bc f9 19 dd 3c
       0.03925103 -0.03346983 -0.015233254 0.026989924
000030 13 79 6a 3b 0a 77 b1 bc 26 04 2b 3d a2 a4 36 3d
       0.0035777732 -0.021663208 0.041752003 0.0445906
000040 8e ef 40 3d ad e5 ac 3c 00 35 9f bc fc 7c d1 bc
       0.047103457 0.021105612 -0.019434452 -0.025572293
000050 77 38 26 3d 71 c8 34 3d 31 c2 f5 bb a9 ae 12 3d
       0.040581193 0.04413647 -0.007499956 0.0358111
000060 3d a2 2f 3d 3a 75 b9 3c 5e a7 a9 bc f3 78 2a bd
       0.04287933 0.022638906 -0.02070969 -0.041619252
000070 bb 44 86 bc 4f c8 aa bb 59 94 d8 3a f3 b4 37 3c
       -0.016390195 -0.005211867 0.0016523703 0.011212575
000080 12 d7 1c bd 56 84 86 3c 1e c9 30 3d e0 b3 23 3a
       -0.038291045 0.016420525 0.04316055 0.000624476
000090 b8 02 b6 bc 89 1d e3 bc 68 93 77 3c d0 1b c5 3c
       -0.022218093 -0.027724044 0.015110828 0.024061114
0000a0 bd 1d 84 3c 85 e3 51 3c 51 9b 0f 3c 38 43 17 3d
       0.016127462 0.012810593 0.008765058 0.03692934
0000b0 8c 25 6a 3c 05 33 c2 3b 65 19 e1 3c 8e a4 80 3b
       0.014291178 0.005926492 0.02747793 0.0039258664
0000c0 00 9e 9f bc 0a c1 0e ba 4b bc aa bc 1f 60 d9 3c
       -0.01948452 -0.0005445635 -0.020841738 0.026535092
0000d0 7f db 93 bc e1 4a 55 3c 96 70 0d bd 28 5e fb 3b
       -0.018049 0.013018341 -0.0345312 0.0076711364
0000e0 09 01 6e 3c 32 b6 02 3d 01 b2 6f ba 7a 1b 58 bc
       0.014526614 0.031912036 -0.0009143651 -0.013190145
0000f0 43 50 e2 bb 9e b2 0f bd bc e2 be bc 65 8a b2 bc
       -0.0069065406 -0.035082452 -0.023301475 -0.021794507
000100 55 cd 11 3c 3d 1b b9 bc bd ad d8 bc ff d9 a9 3c
       0.008899053 -0.022595996 -0.026450032 0.020733831
000110 2e bf 79 bb 74 91 e1 3c c4 a0 15 bd 34 93 f7 bc
       -0.0038108337 0.027535178 -0.03653027 -0.03022156
000120 22 a3 67 3c a8 c5 c1 bb ec 50 fb 3c 61 8f 87 bb
       0.014138015 -0.005913455 0.030678235 -0.004136965
000130 8f c7 b4 3c 80 06 41 3d 38 4a ec ba c7 5f ce 3c
       0.022067813 0.04712534 -0.001802749 0.025192155
000140 3f 0a 9d 3b 22 bb 8d 3d 50 3a d1 3c 82 35 0d 3c
       0.004792481 0.069204584 0.0255405 0.008618714
000150 82 94 52 3d d8 a6 c7 3c 45 56 af 3c 7b a1 55 3d
       0.05141116 0.02437155 0.021403441 0.052155953
000160 29 c4 cd 3c d6 da 43 3c 51 66 75 bb 9f f3 be 3c
       0.02511795 0.01195403 -0.0037445019 0.023309527
000170 0d a4 6e bc 22 dd fa 3c 2a 23 6c 3d 9e e3 70 3c
       -0.01456548 0.030623022 0.057650723 0.014702706
000180 69 a7 37 3d f8 97 37 3d 54 0f 2d 3d 36 fb 1a 3d
       0.04483739 0.044822663 0.042250946 0.03783723
000190 20 b1 b0 b9 80 2f 24 3c 8a f7 98 3c 48 8d 43 3a
       -0.00033701304 0.0100210905 0.018672723 0.0007459712
0001a0 75 12 0c bd 3e 2a 91 bb 60 d1 44 bc 0c b2 aa bc
       -0.03419729 -0.0044300845 -0.0120128095 -0.020836852
0001b0 21 3b 38 3c 64 53 3b 3d 55 3c d0 3b 57 a5 04 3d
       0.011244566 0.045733824 0.0063548484 0.032384243
0001c0 9f 9e 6f 3c ed 42 47 3d e3 17 96 3c 35 5b 95 bc
       0.014625221 0.04864781 0.018321937 -0.018231967
0001d0 b8 b3 b4 bc d6 61 cb 3c ab db 03 3d 0f a5 fa 3b
       -0.022058353 0.024826925 0.032191914 0.007649071
0001e0 da 4c 0a bc 19 94 ff bc 5c 65 ae 3c 83 65 16 3d
       -0.008441174 -0.031198548 0.021288566 0.036717903
0001f0 93 7f 2c 3c 3d f3 23 3d ed cd aa 3c 18 b9 83 bb
       0.010528463 0.040026892 0.020850146 -0.0040198676
000200 4d 3f 9e 3c a9 cd 2c bd 4a bb b3 bc 7f bf 20 3d
       0.019317294 -0.04218832 -0.021939892 0.039245125
000210 65 0f df bc 2d 4a ac bc 14 0f 94 3c 46 46 ef bc
       -0.02722902 -0.021031464 0.018073596 -0.029208314
000220 ec 87 24 bd 05 20 20 bc 4e d8 c0 3c e6 fe 65 3b
       -0.040168688 -0.009773259 0.023540642 0.0035094558
000230 25 81 dd bb ba 3a 11 bd 7f 6c 09 bd a2 85 b5 3a
       -0.00675978 -0.035456397 -0.033550736 0.001384903
000240 b1 f5 eb 3c 76 ec 32 3d 07 59 a3 bc e1 ae 03 3d
       0.028803678 0.043682538 -0.019939912 0.0321492
000250 55 21 d9 bc 92 bc 75 3c 55 5b f8 3b 0a 12 67 3a
       -0.026505152 0.014998572 0.007579247 0.0008814639
000260 79 13 c2 bb c7 3a ae 3c 06 36 75 3c 70 15 c8 bb
       -0.0059227315 0.021268262 0.0149664935 -0.006106071
000270 5e c9 0d bd 4c bd d3 3c 05 83 6f bc 7f b6 35 3d
       -0.034615867 0.0258471 -0.01461864 0.044363495
000280 76 db 0e 3d e9 12 28 bd 7d 2b 66 bb ee cd 23 3d
       0.034877263 -0.04103366 -0.0035121136 0.03999131
000290 3e 8e 92 bc 4a 7a a4 bc bb 16 06 bd c7 2b 4b bc
       -0.017890092 -0.020077843 -0.03273652 -0.012400574
0002a0 33 bf 98 bc 87 71 21 3d 9e c1 a6 3c df 27 00 bd
       -0.018645858 0.03941491 0.020355996 -0.031288024
0002b0 f9 cd 0e 3c c0 13 98 3c 18 e8 c9 bc 79 12 34 3c
       0.0087161 0.018564105 -0.024646804 0.010990732
0002c0 a7 56 d2 3c 40 8c ef bc 39 76 b4 3c ef ed 92 3b
       0.025676085 -0.029241681 0.02202903 0.0044839303
0002d0 a7 f1 b1 bb 61 19 bc bc c4 cf bb 3c f2 ab 8d 3c
       -0.0054304185 -0.02296132 0.022926219 0.017293904
0002e0 94 43 be b9 4d cb 6b 3c 23 20 ac bc df e4 16 bd
       -0.00036289974 0.014391732 -0.021011418 -0.036839362
0002f0 c3 11 ff bc 19 67 e7 bc 75 04 1a 3d d3 57 2b 3d
       -0.0311364 -0.028247403 0.037601907 0.041831803
000300 d2 57 dc 3c 4c 8b a7 bc f0 c5 32 3b 48 a9 05 bd
       0.026897345 -0.020452164 0.0027278624 -0.032632142
000310 06 a4 02 bd a9 b6 95 3c 05 4c de 3c b8 4e 8e bc
       -0.031894706 0.018275576 0.027135858 -0.01737152
000320 bf 4a bd 3b b9 e8 e3 3c d5 3e 2b bd ee d1 2a 3d
       0.0057767327 0.027820932 -0.04180797 0.04170411
000330 ac a2 dc 3a 0f 0c 72 3c da 74 3c 3b 77 85 1b 3d
       0.0016833148 0.014773383 0.0028756172 0.03796908
000340 4d 89 ba bc 99 5c e6 bc 6a 04 4d 3c 22 f9 c0 3c
       -0.022770548 -0.028120326 0.012513259 0.023556296
000350 9d 61 b0 3c 35 4f 19 3d 47 6a c0 3a 0a 4e 69 bc
       0.02153092 0.037429053 0.0014680111 -0.014239797
000360 d1 38 45 3a c0 a5 28 bd 21 84 93 3c 46 b8 ae 3c
       0.000752342 -0.041173697 0.01800734 0.021328103
000370 f0 a7 af 3b 71 c1 bb 3c b3 97 9a 3c ba 01 a7 bc
       0.005360596 0.022919388 0.018871164 -0.020386565
000380 b1 74 11 bc 52 74 9e bc 01 fc 01 3d 8f 74 c8 3b
       -0.008877919 -0.019342575 0.03173447 0.0061174105
000390 78 8a 28 3d 4c 6f 3c 3d 08 d6 2c 3d 23 89 63 bc
       0.04114768 0.04600458 0.042196304 -0.013887676
0003a0 0b b7 42 3d eb 91 0b 3d b8 94 ac 3c ad 83 6f 3b
       0.047537845 0.034074705 0.021067008 0.003654699
0003b0 f5 ea 4a 3d 5b d8 21 3d 5d dd 5a 3d 2f 2a cb 3c
       0.04954048 0.039512973 0.053433765 0.024800388
0003c0 5b 6d 3c bb 69 b2 c4 ba 96 41 5b 3d 35 5d 76 bb
       -0.0028751704 -0.0015006784 0.053529344 -0.0037592177
0003d0 46 59 d1 bb 62 5f 52 3d 89 4d fb bb 17 a5 3c 3d
       -0.006388816 0.051360495 -0.007669155 0.04605588
0003e0 fa f7 2b 3c d6 7e f9 3c f5 df f8 3b b2 6c 71 3a
       0.010496134 0.030455988 0.007595057 0.0009209617
0003f0 5b 24 7d bc 4d ac f1 bb 95 c3 23 bd 38 7d e0 bc
       -0.015450562 -0.007375276 -0.039981443 -0.027403459

layers.4.bias f4 [16]
000000 97 50 26 bd d8 6b 09 bd 33 86 94 bd f7 e8 cd bc
       -0.0406042 -0.033550113 -0.07252159 -0.0251355
000010 a0 97 95 bc a6 13 06 3c f8 e3 fa bc c0 26 32 3c
       -0.018260777 0.0081833955 -0.030626282 0.0108734965
000020 34 57 2b bd 25 c3 f9 3c 14 94 24 bd 41 66 08 bd
       -0.04183121 0.03048856 -0.04018028 -0.033300642
000030 a8 10 64 ba ca 67 07 3c 82 91 07 bd 02 4b ec bc
       -0.0008699992 0.008264491 -0.03309775 -0.02884436

layers.6.weight f4 [16, 16, 5, 5]
000000 4b c5 8d bb 92 30 2c bd f5 3c 73 bc 0c a3 ab 3b
       -0.0043264977 -0.042038508 -0.014846076 0.0052379426
000010 e7 61 30 bd 40 99 b4 bc 98 b4 9b 3c 56 e7 d1 bc
       -0.043062117 -0.022045732 0.019007012 -0.025623005
000020 56 da 02 3d 3c 94 27 bd 6b 5d 1f bc da 48 c1 bc
       0.031946503 -0.04091285 -0.009726862 -0.023594309
000030 b8 da ed 3c 51 8f cd 3c f5 93 5d 3c 07 ca f4 3c
       0.029034957 0.025092753 0.013524045 0.02988149
000040 bd d0 a0 3c 74 13 b0 3c d5 2e 17 bd f6 c9 d9 bc
       0.019630784 0.021493651 -0.036909897 -0.02658556
000050 a3 24 4b 3b 2d 93 63 bc bc 60 8f bc e3 73 8d 3c
       0.003099718 -0.01389007 -0.017502181 0.017267173
000060 0e 96 4b bc 35 5e f0 bb 41 36 21 3c 59 e7 82 bc
       -0.012425913 -0.007335449 0.009839595 -0.015979456
000070 10 f8 15 bd 56 a5 c3 39 00 9f d8 3b d7 2b b4 3c
       -0.036613524 0.00037316483 0.006610751 0.02199356
000080 94 1e d7 3c 82 31 27 bd 65 cb 0b bd fa 97 ce 3b
       0.026259698 -0.0408187 -0.03412952 0.006304738
000090 15 b6 09 3c 89 7e bf bb 90 24 2a 3d b1 33 25 bd
       0.008405228 -0.0058439416 0.041538775 -0.0403325
0000a0 be 9f b7 bc 1b b2 c8 3b 81 5b 9f 3c 12 07 87 3c
       -0.022415038 0.0061247475 0.019452812 0.016482864
0000b0 d3 49 5c bc eb 3d 11 bb 04 ab a2 bb 8d 1b c0 3c
       -0.013445335 -0.002216215 -0.0049642343 0.023450637
0000c0 ce 8f 29 3d cb be 02 bd 56 3b d4 bc c6 92 11 bd
       0.04139691 -0.031920236 -0.0259072 -0.035540365
0000d0 a7 b1 5d 3a 7e c9 12 bd d9 37 a6 3c b7 42 e3 3c
       0.0008456953 -0.03583669 0.020290302 0.027741773
0000e0 82 af d1 3c 8b 41 9b bc d8 a7 d0 3c c4 ed 91 3c
       0.025596384 -0.018952152 0.02547066 0.01781357
0000f0 c7 25 24 3b 3d 90 0e bd f6 9c f8 bb 6a 59 8b 3c
       0.002504693 -0.034805525 -0.0075870706 0.01701041
000100 66 80 05 bd 2a 4d 4b 3c 09 89 17 bd c5 a6 4b bb
       -0.032593153 0.012408534 -0.03699592 -0.0031074744
000110 15 f9 45 3b d1 06 0b bd c3 90 04 3c 95 52 c5 bc
       0.003020828 -0.033942048 0.0080911545 -0.02408723
000120 6a c4 b2 bc ce be 69 bc a0 75 a6 3c 96 04 17 3d
       -0.021822173 -0.014266683 0.02031976 0.036869608
000130 1d cd 0c 3a 26 26 78 3c 74 ab a4 bc b7 44 ce 3c
       0.00053711404 0.015145814 -0.020101286 0.02517925
000140 d8 4d 1a 3d 54 4d fd bb 21 1b aa 3c 92 e7 2e bd
       0.037671894 -0.0077301655 0.02076489 -0.04270131
000150 4e 55 08 bd ec 6f ac bc 59 1c ce 3c 8f e9 c8 bc
       -0.033284478 -0.021049462 0.025160002 -0.024525432
000160 6a 38 36 3c 38 41 93 bc ce 31 0e bb 04 cb 1f bd
       0.011121849 -0.017975435 -0.0021697166 -0.03901197
000170 2a 28 8b 3c ea fa fe 3c fc a1 1c bd 9a 88 8c 3c
       0.016986925 0.031125505 -0.038240418 0.01715498
000180 fa 4a 9a bb ef 14 85 3b 80 05 33 bd 3c 79 cf 3c
       -0.004708645 0.0040613334 -0.043706417 0.025326364
000190 b5 2a de bc 5f 6a c6 3b 9e a3 da 3c a0 98 fc bc
       -0.027119974 0.006055161 0.026689347 -0.030834496
0001a0 e7 fb ed bc bc ff fb bc c0 40 e2 bc 50 77 37 3c
       -0.02905078 -0.030761592 -0.027618766 0.01119788
0001b0 4b 21 5c bb 56 76 f9 bc d7 bd 18 3d b4 1a 49 3c
       -0.003358918 -0.030451935 0.03729042 0.012274433
0001c0 02 71 4c 3c 63 f3 a8 3c d8 79 05 3b b5 b1 29 bd
       0.012478115 0.020623868 0.0020366814 -0.04142924
0001d0 90 fb 3e bc ca 5d f8 b9 e0 b7 06 bd 9f f1 af 3b
       -0.011656657 -0.00047372124 -0.0328902 0.0053693797
0001e0 62 39 1d bd af c3 93 bc cc 86 27 3d 13 ec 01 bd
       -0.038384803 -0.018037645 0.040900037 -0.03171928
0001f0 94 0d 80 bc e5 c7 15 bd f9 ff cb bb 44 1a af bc
       -0.015631475 -0.036567587 -0.0062255827 -0.02137483
000200 2b e2 16 3c 15 83 51 3c 17 f5 0a bc cd cb c9 bc
       0.009209196 0.0127876 -0.008481286 -0.024633313
000210 cc 0d 05 bd 71 3d 83 bc 1a 00 5b 3c 41 24 9b 3b
       -0.03248386 -0.016020508 0.013366723 0.0047345464
000220 be 8e 22 3b f8 d5 21 bd b2 2f 1d 3c e6 ca 05 3d
       0.002480432 -0.039510697 0.009593891 0.032664202
000230 bf 61 29 3c 4f 3f 6a 3c f1 89 d5 bc 93 8e 18 bd
       0.010338246 0.0142973205 -0.026066752 -0.037245344
000240 d7 ac 04 bc 52 93 6c 3c 08 be 1a 3d c0 8c a6 39
       -0.008097849 0.014439421 0.037778884 0.00031766854
000250 2c e5 84 bc a8 f1 2a 3d 91 a9 94 3c ba 74 98 3b
       -0.016222559 0.041734368 0.018147262 0.0046525868
000260 3a 69 d5 3c 50 63 46 bc 04 19 1e 3c fe 4d 34 3c
       0.026051152 -0.012108639 0.009649519 0.011004923
000270 67 b4 12 b9 fc 3c b2 3b fa ba 88 3c bb 4c 39 3c
       -0.0001399085 0.005439399 0.01669072 0.011309798
000280 b6 2d 8d bc 84 ad 92 bb 9a a8 bd 3c b7 37 0b bd
       -0.01723371 -0.004476251 0.023151685 -0.03398868
000290 e2 e5 09 3c 5e 06 9a 3c 2c ce 8e bc 3c a6 f9 3c
       0.008416625 0.018801864 -0.017432295 0.030474775
0002a0 f3 05 40 ba e7 5c 52 3a 10 b3 0a bd be 85 e9 3b
       -0.0007325105 0.0008024708 -0.033862174 0.007126539
0002b0 36 06 07 3c 04 91 d8 3b 5d c5 a8 3c 49 7a b5 3c
       0.008241227 0.006609084 0.020601923 0.022153037
0002c0 56 a5 0a bd 76 a0 bb 3c 30 68 14 3d 5b 30 b0 3b
       -0.033849083 0.022903662 0.036232173 0.005376858
0002d0 ef 03 ee 3c b8 30 85 3c 2a f7 7d 3c e7 7a f2 bb
       0.02905461 0.016258582 0.015500823 -0.007399905
0002e0 d3 5c 3c 3c d1 4a 5c bc 77 6c b1 bc 23 80 06 3c
       0.01149674 -0.013445572 -0.021658165 0.008209261
0002f0 c2 36 93 3b 75 39 56 bc 5b 48 0f 3d 08 5b 1f 3d
       0.0044926116 -0.013075222 0.034981113 0.038905174
000300 e1 25 f9 3c c1 86 9e 3c 9d 5b 34 3d ce 45 8f bb
       0.03041357 0.019351365 0.04403268 -0.004372335
000310 7d 70 ab bc c0 28 24 3d 6a b2 23 3d 26 36 f1 3c
       -0.020927662 0.040077925 0.03996507 0.029444765
000320 b1 76 04 3d bd a2 f3 3b b3 1f 32 3d c6 b5 2f bb
       0.032339755 0.0074351714 0.043487262 -0.0026811226
000330 39 ee 14 3c ae af af 3c 5d 5a 29 bc 40 ca b8 3c
       0.00909 0.021446075 -0.010336486 0.022557378
000340 72 c2 ec 3c 94 80 5b 3b 55 5d c2 bc 61 6e b9 3c
       0.028901313 0.0033493387 -0.023726145 0.02263564
000350 82 e9 4c 3b 1c e0 be bc 0e 80 8a 3c 90 80 3f 3c
       0.0031267111 -0.023300223 0.016906764 0.0116883665
000360 a2 59 88 3c cc 30 72 3b 4c 96 9b 3b da 50 77 3c
       0.016644303 0.0036955355 0.0047481414 0.01509496
000370 bb f0 ef 3b 97 10 64 3b 84 98 28 bd 1d b2 2d 3d
       0.0073223985 0.0034799927 -0.041161075 0.04240619
000380 c6 dd a2 39 ab 50 ee bc 8a e4 0f bb ec 50 b2 3c
       0.00031064282 -0.0290912 -0.0021956288 0.021767102
000390 86 68 eb bc 1f cf 10 3c 53 33 86 bc 5a 81 e9 3c
       -0.028736364 0.008838444 -0.016381895 0.028504062
0003a0 7a d6 d5 3c 51 d3 1d bd 42 85 b8 3c 5a 2f 27 3d
       0.026103247 -0.038531605 0.02252448 0.040816642
0003b0 45 45 b9 bc b3 8b af 3c 48 e3 1d bc a8 92 c6 bb
       -0.022616038 0.021428918 -0.009636708 -0.0060599633
0003c0 0a 50 1e bc dd 40 dc 3b a0 fe 47 3c ff f7 be bb
       -0.0096626375 0.0067215995 0.012206703 -0.0058279033
0003d0 d2 11 0d bd fc 78 9b 3c 51 a6 e6 bc 61 e0 6c bc
       -0.034440823 0.018978588 -0.028155478 -0.014457793
0003e0 60 ec 61 bc fc 1d 16 3d a1 4e 05 bc b0 a7 9f 3c
       -0.013789266 0.03664969 -0.008136422 0.01948914
0003f0 31 5a 34 bd 20 a5 2d bc 21 15 cf 3c b9 2f 18 bd
       -0.044031326 -0.010598451 0.02527863 -0.037154887

layers.6.bias f4 [16]
000000 42 65 fb bc 1a d7 5d 3e e2 21 26 bc 99 dc 92 bd
       -0.030687932 0.21664086 -0.010139914 -0.07170982
000010 5a 41 99 bc 36 89 d1 bb 98 6a 1f bd d4 25 10 bc
       -0.01870792 -0.0063945306 -0.038920015 -0.008798081
000020 7b 7b c7 bc b6 72 0c ba af 85 bc bc d8 15 ba 3d
       -0.024350872 -0.00053576694 -0.023012964 0.090861976
000030 88 56 10 bd 46 1f 91 3d 20 3a d0 bc 82 57 5c bd
       -0.035238773 0.07086043 -0.025418341 -0.05379439

layers.8.weight f4 [16, 16, 5, 5]
000000 2a d5 b8 3c b4 a0 eb 3b dd bc 30 3d 9e 0d 22 bd
       0.022562582 0.007190788 0.043148864 -0.039563768
000010 52 ca 4b 3c 8c b0 43 bc 96 89 06 3d 45 aa 94 bc
       0.012438374 -0.0119439475 0.032846056 -0.018147597
000020 02 94 1e bc af 88 01 3c 59 29 23 3d ee ed e4 bc
       -0.0096788425 0.007906123 0.039834354 -0.027945485
000030 67 c0 21 bd f4 3d ef 3c c6 a0 da 3c 8b 4e 0b bd
       -0.03949013 0.029204346 0.02668799 -0.03401045
000040 1b 86 61 bc aa fd e7 3c 31 20 8d bc 22 ff 57 3c
       -0.013764883 0.028319199 -0.017227264 0.013183387
000050 8f 08 0a 3b 5d 9e 0b bd 30 d1 fd 3b 4e 83 17 3d
       0.002106223 -0.034086574 0.0077458844 0.036990456
000060 37 a6 11 bd fb d1 b1 3b 26 82 84 bc be bb 21 39
       -0.035558905 0.005426643 -0.01617534 0.00015424096
000070 45 4c 2e bd 4a 0a 5f bb bb 19 cf 3c 02 80 22 bd
       -0.042553205 -0.0034033232 0.025280824 -0.03967286
000080 71 3d b8 3c 39 76 7e 3c b7 f2 d8 3c f0 e4 36 bc
       0.022490235 0.015531116 0.026482923 -0.011162981
000090 d1 20 3d 3c aa 51 f3 3c 58 ac 0a bd 9a 07 1f 3d
       0.011543469 0.029702026 -0.033855766 0.03882561
0000a0 f2 66 26 3a 1c da 33 bd c0 12 0f 3d e0 bf 66 bc
       0.00063477375 -0.043909177 0.03492999 -0.0140838325
0000b0 0f 3d 1a bd 38 06 b9 bc 38 1e b5 3b 58 45 d6 3c
       -0.037655886 -0.022585973 0.005527284 0.026156113
0000c0 90 7b bd bc 71 ca e4 3b 2c cc 26 bd c1 b9 c1 3c
       -0.023130208 0.0069821407 -0.040722057 0.023648145
0000d0 74 d4 17 3c 37 a0 f8 3c bb f0 68 bc 9c 94 91 bc
       0.009266961 0.030349834 -0.014217551 -0.017771058
0000e0 9b 4c de 3c 34 d0 06 3d fd e1 8a 3c ec 14 bb 3c
       0.027136138 0.0329134 0.016953463 0.022837125
0000f0 01 b0 08 3d 65 6b bc bc 38 43 93 bc 43 1d b7 bb
       0.033370975 -0.023000428 -0.017976388 -0.005588205
000100 7a 2f 05 bd e7 7a f6 3a a1 57 20 bd 48 e9 28 bd
       -0.03251598 0.0018804938 -0.03914607 -0.0412381
000110 39 3a 20 bd 8f e1 b6 bb 82 e3 a5 3c f9 9b e6 bc
       -0.039118025 -0.005581088 0.020250086 -0.028150545
000120 d3 de 01 bd 45 40 8b 3c 7c 40 9d bc ba 1b 2b bd
       -0.031706642 0.01699842 -0.019195788 -0.04177449
000130 06 d9 d0 3c 19 cf 27 bd e8 ec 29 3d 88 a1 bb ba
       0.02549411 -0.040968988 0.041485697 -0.0014315108
000140 c0 94 2d 3c e2 8e 8c 3c c0 c9 4e 3c 09 10 dd 3c
       0.010594547 0.017157976 0.012621343 0.026985185
000150 2b 19 23 bc 9a e7 0d bd cf 5c 28 3d 49 7f 38 3c
       -0.009954731 -0.0346447 0.041104134 0.011260816
000160 70 6d 40 3c 70 68 01 bd 2c fe a4 bc 3d 3d 39 3c
       0.011744842 -0.03159374 -0.02014073 0.011306104
000170 e4 5d 2f 3d ff 6f 89 bc 22 6c ed 3b 59 76 98 bc
       0.04281415 -0.016777037 0.0072455565 -0.01861112
000180 dc 85 9f 3c e5 0d 38 3c a1 7c 3e 3b ce 4a ef bc
       0.019473009 0.011233781 0.0029065984 -0.029210474
000190 ba 0d 24 bd cb 41 ff bc aa bf b7 3c 8e 3a 0a bb
       -0.040052153 -0.031159302 0.02243026 -0.002109203
0001a0 ba cf 92 bc a2 49 9e bc 81 f4 25 3c 53 e6 1b 3d
       -0.017921317 -0.01932222 0.010129095 0.03806145
0001b0 22 b3 25 3d 43 85 d5 3c 46 9e 90 3c fe 29 10 3d
       0.040454037 0.02606452 0.017653596 0.035196297
0001c0 54 23 d3 bc 31 a6 bd 3c e4 aa ca bb d3 f8 24 3d
       -0.025773682 0.023150535 -0.0061849225 0.04027636
0001d0 f0 f1 4a bb 6b 5b ff bc da 93 ed bb 45 8b b3 3c
       -0.003096696 -0.031171521 -0.0072502913 0.021916995
0001e0 c4 c0 0e 3d ae fb e5 3c 9e 02 1a bb 08 ae 05 3d
       0.034851804 0.028074112 -0.0023500095 0.032636672
0001f0 18 a8 22 3d 4d cb d6 bc 86 61 01 bd cb 92 24 3d
       0.039711088 -0.026219988 -0.031587146 0.040179055
000200 bb 72 65 ba b6 ac f6 bc eb d7 a8 bb 7b 6b c8 3a
       -0.0008752753 -0.030111652 -0.0051526926 0.0015290821
000210 16 c7 dd 3c 3e 88 ae bc a4 ff c4 3c 5a 3e 0b 3d
       0.02707247 -0.0213052 0.02404768 0.03399501
000220 71 82 1a bd 2b ab 11 ba e2 f9 1f bc 34 65 a5 bc
       -0.037722055 -0.0005556817 -0.009764167 -0.020189859
000230 a7 de d1 3c 18 ff 1d bd 2e 4b ea 3c 05 8f 39 bc
       0.025618864 -0.038573354 0.028600302 -0.011325602
000240 18 28 da bc 40 ed ad bc 0d 8a b9 3c e6 e9 fe 3c
       -0.026630446 -0.021231294 0.022648836 0.03111739
000250 1f 5a b6 bc 3e 95 eb bb 25 a8 ec 3c af 4f 5e bc
       -0.02225977 -0.007189422 0.028888771 -0.013568803
000260 d4 5c f8 3c eb eb 82 bc db ec 58 3c 81 9c 8f 3c
       0.030317701 -0.015981635 0.0132400645 0.017530682
000270 96 df 9c 3b d9 ef a8 bc 27 da 55 bc e2 7d 12 bd
       0.0047873957 -0.02062218 -0.0130525 -0.035764582
000280 73 0c 04 3d 7c 14 f0 3c 21 eb 1f 3d 3b 96 e5 bc
       0.032238435 0.029306643 0.039042596 -0.028025737
000290 92 3d 1d bd c0 51 2d 3d f8 22 80 bc c2 b9 07 3d
       -0.038388796 0.04231429 -0.015641674 0.033136137
0002a0 73 2e 90 bc bd d9 93 b9 6a 2c 64 3c 0a 29 87 3c
       -0.017600274 -0.00028200253 0.013926605 0.016499061
0002b0 1e ab a9 3c 00 ba c2 3b 4e ae ce 3c bf ec 83 3b
       0.020711478 0.005942583 0.0252296 0.004026025
0002c0 8b 63 dd bc 15 9a 1a bd 39 2e 48 3c 37 7a f7 3c
       -0.027025005 -0.0377446 0.012218052 0.030209644
0002d0 f7 e2 10 3d f1 55 fe 3b 8a bf c7 bc 4f c7 84 3c
       0.0353727 0.00776171 -0.024383325 0.016208319
0002e0 9c 97 9b bc 87 ff 16 3c 90 09 87 3b f0 ae 23 bd
       -0.018993191 0.009216196 0.004121013 -0.039961755
0002f0 c5 5b 1f 3c a1 4a 2f 3d 8b db 7c 3c 7b b2 9c 3c
       0.009726469 0.04279578 0.0154332025 0.019128075
000300 fe 1c 1a 3d 0a 4d c0 3c 7b 2e cf 3b 42 92 c1 3c
       0.037625305 0.023474235 0.0063226796 0.023629311
000310 d6 81 12 3c 5d 39 71 bc cf ed 11 bb 56 a5 e0 bc
       0.008942088 -0.014723149 -0.002226699 -0.027422588
000320 fb 0c 79 bb b8 58 a7 3c bd 31 13 bd 37 6d a1 3b
       -0.0038002122 0.020428047 -0.035936106 0.0049263495
000330 26 2a 22 3d c1 9c c1 3c 32 01 d7 3c 54 3d 30 3d
       0.039590977 0.023634316 0.026245687 0.043027237
000340 dc 5e b1 bc 0f 5e fd b9 3f 8b 98 bc 62 ca 2c bd
       -0.021651678 -0.00048326 -0.018621085 -0.042185195
000350 51 75 32 3b dc 51 e1 bc 6f d5 03 ba 2d 13 65 3c
       0.002723057 -0.027504854 -0.00050290575 0.013981623
000360 4c 5e 17 3d 59 fc a9 ba 98 d7 74 bb 15 43 96 3b
       0.036955163 -0.0012968882 -0.003735995 0.0045856335
000370 7a 64 2f bd 74 5e c9 bc ab a7 83 bc d6 a7 54 3c
       -0.04282043 -0.024581172 -0.016071161 0.012979468
000380 fe 3d 04 3d 61 15 0f bd 9f d4 34 3d 22 80 04 bd
       0.032285683 -0.034932498 0.044148084 -0.03234876
000390 9c a7 f9 3c 4a da 03 3d 93 ee 18 bd e4 fb 7f bb
       0.03047543 0.0321906 -0.037336897 -0.003906005
0003a0 24 9c e2 bc 14 62 c0 3c 57 25 94 3b 51 71 c3 3c
       -0.027662344 0.023484267 0.004521053 0.023857744
0003b0 fc 12 a2 3c e2 c2 13 3d d3 5d 0b 3d 48 dd 14 3d
       0.019784443 0.036074527 0.034025025 0.036343843
0003c0 64 66 cb bc bc 8b d1 3b 07 c3 b7 3c ab c6 9c bb
       -0.024829097 0.0063948315 0.022431863 -0.0047844253
0003d0 e4 4a b3 bc f3 56 00 bd 95 c6 be bb 76 4b 9c 3c
       -0.021886297 -0.03133292 -0.0058220127 0.019078951
0003e0 6b 8a 30 3d 58 58 3a 3c 86 a9 af 3c 5e 12 ef 3c
       0.043100756 0.011373602 0.02144314 0.029183563
0003f0 bd 7b 26 bc f7 d9 30 bb 46 d9 af 3a ce ec d4 3c
       -0.010161337 -0.0026985386 0.0013416193 0.025991824

layers.8.bias f4 [16]
000000 3c 31 0d bd 83 0a f9 3b cd 8b 17 bd 8e db 03 bd
       -0.03447078 0.00760013 -0.03699856 -0.032191806
000010 85 d9 3a bd ca 41 1c bd 9e 38 2b bd 98 f5 2d 3e
       -0.0456176 -0.03814868 -0.04180204 0.16988218
000020 e9 c9 56 bd e8 ce 10 3e 3d bb 59 bd c6 97 de bb
       -0.05243865 0.14141428 -0.05315708 -0.006792995
000030 e4 a2 38 bd 32 28 fa bc d2 a6 4f bd 9f 7a 12 bd
       -0.04507722 -0.030536745 -0.0506962 -0.03576147

layers.10.weight f4 [3, 16, 3, 3]
000000 d8 02 06 bd 70 3d b0 bc ff 2b 57 3d 77 3c 76 bc
       -0.032717556 -0.02151367 0.052532192 -0.015029064
000010 e6 a4 31 3d c4 66 26 bd bf a4 4f 3b 2b 9a 93 3d
       0.04337015 -0.04062535 0.003168389 0.072071396
000020 34 36 94 3d a2 2f 8c 3c 64 6f c7 3c c3 18 f5 ba
       0.07236901 0.017112557 0.024345107 -0.0018699396
000030 0c 3c ab 3c 2a 0a c6 3d ee fe be 3c 6c 36 9e 3a
       0.020902656 0.096699074 0.02331492 0.0012070662
000040 3a 30 d3 3d e4 97 92 3d 36 4d 5d 3d c9 c7 85 3d
       0.10311933 0.07157877 0.054028712 0.065322466
000050 78 1b 31 bd 2b 88 bb bc 09 38 5a bd 71 fe 90 3d
       -0.043239087 -0.022892078 -0.053276096 0.07079781
000060 b8 f2 58 bc fa 4a d7 bc d4 b2 46 bd ce 40 1f 3d
       -0.013241462 -0.026280869 -0.048510388 0.038880162
000070 0f d6 e2 bb c4 86 44 bc e7 be 49 3d 07 41 c9 3c
       -0.0069224904 -0.011995021 0.049254324 0.02456714
000080 01 d5 0a 3d 97 b3 29 3d 56 93 50 3d 8f 33 4f bd
       0.033894543 0.041431036 0.05092176 -0.05058628
000090 56 41 64 bc 9c be 1a 3d 2d 46 d2 3c c9 e1 7c 3c
       -0.013931593 0.037779436 0.025668228 0.015434691
0000a0 01 b1 8f b9 5a c8 f7 bc 8b ee d9 ba 13 c7 df bc
       -0.00027406964 -0.030246902 -0.0016626877 -0.027316606
0000b0 88 aa c1 bc b4 5b 26 3e 81 9e 5a 3d 3f e0 06 3e
       -0.023640886 0.1624592 0.053373817 0.1317148
0000c0 80 54 cb 3d 0e 83 20 3d 96 b0 f7 3d 27 f4 0e 3e
       0.099282265 0.039187483 0.12094228 0.13960324
0000d0 d4 57 ba 3d e5 ba 02 3e 08 99 23 3d b2 41 48 3d
       0.09098783 0.12766607 0.039940864 0.048890777
0000e0 94 ab f6 3c bf f9 64 bd 8a bf 34 bc 15 f9 3c bc
       0.030111112 -0.05590224 -0.011031995 -0.011533995
0000f0 e4 59 8f 3c 15 b7 27 3d 9d 82 25 bd 11 88 29 bd
       0.017498918 0.040946085 -0.040407766 -0.04138953
000100 63 86 cb bd 17 f8 b7 bd 9b 74 85 bd 1b 24 f0 bd
       -0.099377416 -0.08982866 -0.06516381 -0.117256366
000110 86 d1 dd bd 41 d8 e8 bc 13 86 23 bd c2 33 82 bd
       -0.10830979 -0.02842343 -0.039922785 -0.06357528
000120 29 f2 11 bb c3 55 55 3d 22 0b 76 3c 64 a7 5e bd
       -0.0022269583 0.052083742 0.015017303 -0.054358855
000130 ab b9 25 bd 72 64 42 ba 00 f5 23 bd 5b a3 78 bb
       -0.04046027 -0.000741548 -0.040028572 -0.0037939164
000140 77 34 77 3d ed 1d 76 bd 4b 21 65 3c ac 50 d6 bd
       0.06035277 -0.060087133 0.013984988 -0.10464606
000150 97 95 d0 bd f6 25 d0 3c 34 e1 bf bd ae 55 63 bd
       -0.10184782 0.025408726 -0.09369126 -0.055501632
000160 91 db ec bd f3 75 58 bd be 63 e6 3d 4f c8 bb 3d
       -0.115653165 -0.05284686 0.11249493 0.09169065
000170 3f b3 87 3d 93 6f f6 3d 94 2e e6 3d b4 25 bb 3d
       0.06625985 0.12033 0.11239353 0.09138051
000180 88 65 00 3e 47 f2 ae 3d a8 4c 8a 3c 50 ec 76 3c
       0.12538731 0.085423045 0.016882256 0.01507099
000190 f3 15 5f bd c6 3e 4a 3d 7e df 35 3d 5b a2 f6 3a
       -0.05446429 0.04937627 0.044402592 0.0018816696
0001a0 72 a1 84 3c 04 c5 86 3d be bb 50 bd b0 cd 34 3d
       0.016190264 0.065805465 -0.050960295 0.04414147
0001b0 2e 22 86 3d b5 48 40 bd b4 9d 93 3d ee 3d 0d bb
       0.06549488 -0.04694434 0.07207814 -0.0021551806
0001c0 92 7f 06 3d 65 ec 75 bd 27 17 77 bd 0c c4 d7 bb
       0.032836504 -0.060039897 -0.060324814 -0.00658465
0001d0 f5 ec 87 bc f4 5b c4 ba dc cc 02 3d 49 27 1e bc
       -0.016592482 -0.0014981017 0.03193365 -0.009652921
0001e0 cd 49 10 3d 83 b2 10 3d 0f b6 0f 3d 17 88 e0 3c
       0.035226632 0.035326492 0.035085734 0.027408643
0001f0 28 a6 80 3b c4 22 c9 bc 47 bb 04 3e a1 4e 21 3e
       0.0039260574 -0.02455271 0.12962066 0.15752651
000200 4d 8c 09 3e 8c b2 05 3d f0 c1 58 3d 61 3d b8 3d
       0.13432427 0.03264098 0.05291933 0.08996082
000210 63 f8 18 3e 42 8d 23 3e 6e 17 73 3d d4 a5 68 3c
       0.14938502 0.15971854 0.059348516 0.014199693
000220 25 cb 08 3d 9f 6c df bc 86 59 c0 bc 26 61 a9 3d
       0.03339686 -0.027273474 -0.023480188 0.08270483
000230 28 b5 48 bc da 0f 2e 3d 0f 8d 80 3c cf 28 b0 3d
       -0.012250222 0.042495586 0.015692262 0.086015336
000240 ca 67 2a bd 50 7c 9a bc 96 60 b3 3b 0b ed 37 bd
       -0.041602887 -0.018858105 0.0054741604 -0.044903796
000250 3b ab b3 3c 25 6e fd 3b 85 34 86 bd a3 96 9d 3c
       0.021932235 0.0077340775 -0.06552986 0.019236868
000260 72 ea ba 3c 5f b6 46 bd 6b 94 4b 3d eb dc 9c 3b
       0.02281687 -0.048513766 0.04970209 0.0047870777
000270 90 0c 20 bd 22 a6 32 bc 29 8d 86 3d 35 0c 86 bd
       -0.03907448 -0.010903867 0.06569893 -0.06545297
000280 77 30 3a 3c e5 f8 cc 3c c8 0b b7 bc f6 33 c9 3c
       0.011364094 0.025021026 -0.022344485 0.02456091
000290 52 4b f0 3c 18 4f f3 3c 1f e9 da 3c 12 19 3a 3d
       0.02933279 0.0297008 0.026722489 0.045434065
0002a0 d6 80 79 3c db c9 bf bc 2d 8c 45 3d 98 69 47 bd
       0.015228471 -0.023411682 0.048229385 -0.048684686
0002b0 57 0e b5 bc 90 37 91 3d 33 18 31 3d ae 1d 99 3b
       -0.022101564 0.07090676 0.04323597 0.0046727275
0002c0 43 ac 01 bd 23 3e 24 3c 8e 35 e7 3c 7f f0 e9 3c
       -0.031658422 0.01002458 0.028223779 0.02855706
0002d0 5a d1 bd 3c c8 68 8d 3d c6 2a 1c bc 78 69 90 bc
       0.023171116 0.06904751 -0.009531682 -0.017628416
0002e0 3d 08 0c 3d 0b a0 40 3d 63 f1 30 bc 03 a9 83 3c
       0.034187544 0.04702763 -0.010799739 0.016071802
0002f0 93 4e 79 3c 6d 0f f5 3c 8a d5 91 bd d2 87 19 3c
       0.015216487 0.029914582 -0.071208075 0.009370761
000300 3f 8e 82 bd f7 03 07 bd 5c 6d 2a 3d 1c 96 40 3d
       -0.063747875 -0.032962766 0.0416082 0.047018155
000310 72 40 82 3d 11 9f 7e bd f0 9b 7a bc 57 09 21 bc
       0.06359948 -0.062163416 -0.015295967 -0.009828887
000320 35 c9 86 bd 27 07 ba bc f6 43 87 3d f5 fd d6 bb
       -0.06581346 -0.022708489 0.066047594 -0.0065610358
000330 09 3b 00 3d 8f ca 29 3c da 05 f0 bb c8 8b f0 bc
       0.0313063 0.010363235 -0.0073249163 -0.029363528
000340 b1 78 66 bd 28 2a 07 3d 90 da 5e bd 11 f5 ab bc
       -0.056267444 0.032999188 -0.054407656 -0.02099088
000350 a3 03 6e 3b d3 a4 7a 3d b4 e0 c3 3c 56 35 4d bd
       0.0036318086 0.061192345 0.023910858 -0.050099693
000360 1a 24 52 bd 78 7e 33 3d a6 ea 29 bd 90 37 a6 3c
       -0.05130396 0.043821782 -0.041483544 0.020290166
000370 04 55 76 3d b3 f7 8f 3d 76 13 7c 3d b7 99 2b 3d
       0.06013967 0.07029667 0.061541997 0.04189464
000380 eb c7 94 bd fe 5f 94 bd cf 3f 7a 3d 96 9d e9 bc
       -0.07264694 -0.072448716 0.06109601 -0.028517526
000390 2f 31 b2 3b e7 fb 86 bd a4 df 61 3d b8 36 90 3d
       0.005437992 -0.06591015 0.05514492 0.07041687
0003a0 c3 12 42 3d 5e 65 23 bd 73 6b 3f bd d4 65 da bb
       0.047381174 -0.039891593 -0.04673333 -0.006664971
0003b0 dd f2 4f 3c 17 66 41 bd a1 f7 29 3d cb 8a 17 bd
       0.01269218 -0.0472165 0.041495923 -0.036997598
0003c0 04 a4 24 bb 8e 0c 3e 3d 3a ab 77 bd 53 88 00 bd
       -0.0025122175 0.04639869 -0.06046603 -0.03138001
0003d0 a6 2c 52 3d d2 3b 3c 3d 6c ad a3 bc ea be cb 3b
       0.05131211 0.045955487 -0.019980155 0.006217827
0003e0 91 83 df bc b5 e8 28 bd 7c 7b 8f 3d 83 29 71 bc
       -0.027284415 -0.04123755 0.07005975 -0.01471937
0003f0 1e ff 17 3c 15 cc 81 3c 13 e2 93 bd 39 af 1c 3d
       0.009277133 0.015844384 -0.072208546 0.038253043

layers.10.bias f4 [3]
000000 c7 d9 f5 bd 2f b8 4d bc 57 5a 24 bd
       -0.12004428 -0.01255612 -0.040125217
